Code/model/travel_model.pt (torch, 392719 bytes, 4 tensors)

fc.0.weight f4 [128, 504]
000000 54 8c ef bc 5f b5 ba bd 23 e0 2c be d8 09 2d 3c
       -0.029241718 -0.09116625 -0.16882376 0.010561429
000010 98 dc 4c 3c c5 f7 a9 bd ca d4 1e bd d4 77 1c be
       0.0125037655 -0.082992114 -0.03877715 -0.15280086
000020 85 1a 2d be 16 92 29 be c6 f5 6e 3e f6 c7 49 3d
       -0.16904648 -0.16559634 0.23335943 0.049262963
000030 6e c0 26 be 8b 87 17 be eb 13 b6 be 88 d9 80 3e
       -0.16284344 -0.147978 -0.3556207 0.25165963
000040 21 1e c9 3e 85 73 b0 bd b1 15 4a be f0 f7 1c 3c
       0.392808 -0.086157836 -0.19734837 0.009580597
000050 e9 5d c2 3e 9b 95 7b 3e 7e 5e 17 bd 6b 9a 85 3e
       0.37962273 0.24568789 -0.03695535 0.26094374
000060 1d 8d cf 3e e2 37 e5 bd 6a 29 9b 3e d4 47 55 3e
       0.40537348 -0.111922994 0.30305034 0.20828182
000070 a6 d0 1a be c7 2b 43 be 61 81 89 3e 82 b4 66 3e
       -0.15118656 -0.19059668 0.2685652 0.22529796
000080 0c ed 01 3c 1b e6 4b 3e 7f 1a 57 3d 1a f6 5d bc
       0.007930052 0.19911997 0.052515503 -0.013547445
000090 5e 39 f3 bd bd 02 4b 3d e2 8b 2a be d8 ae d6 bd
       -0.11876176 0.04956316 -0.16654924 -0.104825675
0000a0 9a a9 08 3c b3 f6 79 be 42 74 4f bd dc 8e d6 3c
       0.008341217 -0.24410515 -0.05064798 0.026191168
0000b0 d5 1e e7 bc 13 38 35 be 62 51 18 be ec 10 88 3e
       -0.028212944 -0.17697172 -0.14874795 0.2657541
0000c0 62 94 a7 be b3 f2 43 3e 9b 96 b6 be 71 9e b0 3e
       -0.32730395 0.19135551 -0.35661778 0.3449588
0000d0 5d b4 1b be a3 2d 7a be 5b cc 95 3e a0 40 86 3e
       -0.15205522 -0.24431472 0.29257473 0.2622118
0000e0 95 14 a0 3e 02 43 5a 3e 42 26 bf 3e 42 35 af bd
       0.31265703 0.21314624 0.37333876 -0.0855508
0000f0 30 98 82 3e 97 9c e4 bd c1 cf 02 be 5e fa 0d bd
       0.25506735 -0.1116268 -0.12774564 -0.034662597
000100 70 92 7c 3b 1c 61 1c 3d 09 2e 7b 3e b9 e2 3f be
       0.0038539432 0.03817855 0.2452928 -0.18738832
000110 fd 3c a2 be 15 42 65 be 58 c2 d9 bd c8 87 25 be
       -0.31687155 -0.2238849 -0.10632771 -0.16165078
000120 b0 32 24 be ba e6 1d be 95 24 71 be 58 7f 85 be
       -0.16034961 -0.15420046 -0.23549111 -0.26073718
000130 00 af 34 3b 38 68 a5 3b c8 db c3 bd 20 33 26 3e
       0.0027570128 0.0050478242 -0.09563404 0.1623044
000140 ac ca 50 3e 62 b2 95 be 66 fe 9c 3e 1d 3e 85 3e
       0.20389813 -0.29237658 0.3066284 0.2602395
000150 71 89 89 be 63 c1 c3 3e 50 c6 58 3e 5a 41 92 be
       -0.26862672 0.3823348 0.211694 -0.28565484
000160 3a a9 e0 bd ca a4 6d 3e aa c1 3c be 34 39 5e be
       -0.109697774 0.23207393 -0.18433252 -0.21701509
000170 7e 30 05 be c4 58 4f 3e 06 2f f7 bd cd 31 77 3e
       -0.1300678 0.20248705 -0.12069516 0.24140091
000180 51 74 14 be 54 1e b4 be 88 96 40 3c 80 26 bf bd
       -0.14497496 -0.3517939 0.011754639 -0.09333515
000190 c6 9b 6e 3e df 98 02 be 1b 94 ae be 31 8e 24 be
       0.2330161 -0.12753628 -0.3409737 -0.16069867
0001a0 49 32 47 be 81 27 c8 be 2b 5d 88 3e 11 93 a1 bc
       -0.19452776 -0.3909264 0.26633582 -0.019723447
0001b0 48 4c 95 3e a8 3a d0 3c 6c 0e 5f be 4d 8a 84 3e
       0.2915976 0.025418594 -0.21782845 0.25886765
0001c0 5c 75 de 3c 00 49 f0 3a e3 fe 61 3e 2a 1f 25 be
       0.02715557 0.0018332303 0.22069888 -0.1612517
0001d0 1d ba 87 3e f5 32 69 3e 66 7d a2 be 22 52 16 bd
       0.2650918 0.22773345 -0.31736296 -0.03669942
0001e0 8b 8a b3 3e 7a b4 21 3d c8 de f7 bd 4d 07 8a 3e
       0.35066637 0.039478756 -0.12103039 0.26958695
0001f0 45 46 d8 bc 81 15 70 3e 3d 63 52 be 14 d5 de bd
       -0.026400695 0.23445703 -0.20545669 -0.10880485
000200 18 0d 87 3e f1 c0 41 be fa fd 06 3d c7 f8 76 be
       0.26377177 -0.18921258 0.032957055 -0.24118339
000210 53 1c 79 be 15 b0 76 be 57 37 4b 3e 52 26 0f be
       -0.24327211 -0.24090607 0.19845329 -0.13979462
000220 0c d2 a2 3c bb c0 8e bd 6e b8 b1 3e 05 83 97 be
       0.019875549 -0.06970354 0.3471102 -0.29592147
000230 bb f3 af 3e 18 26 0f bd 9e fd 4e be 85 a9 50 be
       0.3436564 -0.03494844 -0.20213935 -0.20377167
000240 7a 5e c7 be b3 36 38 be 01 ff a2 3e f8 24 3f 3e
       -0.38939267 -0.17989616 0.31835178 0.18666446
000250 06 a0 aa bd c9 ca 6f be ef cc 49 be 33 43 dc be
       -0.08331303 -0.234172 -0.19707082 -0.4302002
000260 8c 48 9d 3c 8b 93 b4 bc 6a ae 79 be aa 87 23 be
       0.019199632 -0.02204301 -0.2438294 -0.1596972
000270 c8 9e c5 3e 77 37 7f 3e 80 5a 17 bd 87 7a 38 be
       0.38597703 0.24923502 -0.036951542 -0.1801549
000280 18 c1 b9 bd 8b b3 90 be 1b 2f 8f 3b 9e 63 c5 bd
       -0.09070033 -0.2826198 0.004369629 -0.09638141
000290 dd 02 42 be c6 8d 89 be f9 71 c6 bd f9 a0 a4 3e
       -0.18946405 -0.26865977 -0.09689707 0.32154062
0002a0 d4 1c 87 3e df c0 30 be 3a f0 3a 3e 92 ba 95 be
       0.26389182 -0.17261074 0.18255702 -0.29243904
0002b0 be be 2b bd 22 4c 5b 3e 01 01 74 be 61 af 1c be
       -0.041929953 0.21415761 -0.23828508 -0.15301277
0002c0 f9 9b 37 be 40 c1 88 3e 51 b7 c7 3d d0 c5 a4 3e
       -0.17930593 0.26709938 0.09751762 0.3218217
0002d0 4f 1d f9 3c 9d 76 58 be 2b 88 bb be a1 d9 86 be
       0.030409483 -0.21138997 -0.36627325 -0.26337913
0002e0 95 0b 2f be c5 66 82 be 2c cd 8c 3e ef 7b 9b 3e
       -0.17094262 -0.25469032 0.27500284 0.3036799
0002f0 ae 25 ef bd 08 c0 0e bd ae 30 8a 3e 6a 5f 06 be
       -0.11677109 -0.034851104 0.26990265 -0.13122335
000300 ca b5 7a 3e ae c4 2a bd f2 f6 ce be f0 77 8c bd
       0.2448341 -0.041691475 -0.4042278 -0.06858814
000310 11 a1 52 bd 88 f9 70 3e 9b bb 92 be 51 59 95 bd
       -0.051423136 0.23532689 -0.28658757 -0.072924264
000320 d1 f1 73 bd ae 3e 42 3e a7 1b 60 3e 51 44 55 3e
       -0.059556786 0.18969223 0.21885549 0.20826842
000330 13 2d 44 bd 5d ba 9c 3e e4 df 3d be b2 79 d2 be
       -0.04789455 0.30610934 -0.18542439 -0.4110847
000340 a4 b4 ea bc 86 59 83 3e 35 83 5c bd e8 3e 93 3e
       -0.02865059 0.25654238 -0.053836066 0.2875893
000350 00 d6 03 be 68 7d f8 3c 66 4c 98 3e 40 05 95 3e
       -0.12874603 0.030333236 0.29745787 0.29105568
000360 a3 44 54 3e 0d 7b 76 3e 8b 62 7e be d0 62 99 bc
       0.20729308 0.24070378 -0.24842279 -0.018723875
000370 d6 bb 87 be 38 76 db 3e 38 4f bf 3e 4e ed 4c be
       -0.26510495 0.4286363 0.37365127 -0.200124
000380 c5 2c f3 bd 05 42 9c 3c c4 b8 9f bc d3 ac 45 3e
       -0.118737735 0.01907445 -0.019497283 0.19304208
000390 58 d1 40 bd c1 46 23 be 22 76 10 3d 9c 72 55 bc
       -0.047074646 -0.15944959 0.03526891 -0.013027813
0003a0 b7 e2 64 bd f0 02 0c 3d 22 eb 0c bd de a8 bf be
       -0.055880275 0.03418249 -0.034403928 -0.37433523
0003b0 36 15 cd bd 36 11 8d 3e 34 b2 8f be 7e 9b ff bd
       -0.10013811 0.27552193 -0.28065646 -0.1248083
0003c0 08 2b b0 bb 40 36 27 3c 82 1e 50 3e ba cf 80 3e
       -0.0053762235 0.010205805 0.20324138 0.25158483
0003d0 7c 92 54 3e 0d 6e d8 bd 21 5a 8c 3e c5 75 81 be
       0.20759004 -0.105678655 0.27412513 -0.25285164
0003e0 02 09 1c 3d f9 bc 06 be 8a e6 3f be f5 50 c9 bc
       0.038094528 -0.13158025 -0.18740287 -0.024574736
0003f0 30 8a 8f be ff 95 3e be 72 df 18 be 19 6f 1d 3e
       -0.28035116 -0.18611906 -0.14928988 0.15374412

fc.0.bias f4 [128]
000000 d3 29 64 3e 48 59 57 3e 24 d3 7c 3e 20 4c 6f 3e
       0.2228158 0.21030152 0.24689919 0.23368883
000010 26 53 84 3e 05 5c 53 3e f3 f0 85 3e eb 00 83 3e
       0.25844687 0.20640571 0.26160392 0.25586638
000020 7e 1c 5e 3e c5 f3 62 3e 8e d8 59 3e 51 d9 65 3e
       0.21690556 0.22163303 0.21274015 0.22446181
000030 d3 a1 7d 3e 68 f7 7e 3e ba 92 82 3e 9d 0f 7c 3e
       0.24768762 0.24899065 0.25502568 0.24615331
000040 0d 68 5a 3e d3 80 87 3e a4 ff 7d 3e f4 04 68 3e
       0.21328755 0.26465473 0.2480455 0.2265814
000050 85 42 6b 3e f3 80 80 3e d7 32 87 3e ce 91 70 3e
       0.22974594 0.2509838 0.26405975 0.2349312
000060 f7 7f 7f 3e d3 cc 80 3e 0b 43 89 3e 70 66 7d 3e
       0.24951158 0.25156268 0.26808962 0.24746108
000070 d3 8c 79 3e ec fc 8a 3e 8d 99 5d 3e 92 54 75 3e
       0.24370126 0.2714609 0.21640606 0.23958042
000080 23 ed 77 3e c9 97 84 3e ec 35 8e 3e 9c 0d 83 3e
       0.24211554 0.25897053 0.27775514 0.2559632
000090 8d 87 66 3e 13 09 6d 3e d3 1a 87 3e d3 af 81 3e
       0.22512646 0.23147993 0.26387653 0.25329456
0000a0 c9 f5 87 3e 73 b5 82 3e bf 6f 84 3e 7c f5 87 3e
       0.26554707 0.2552906 0.25866506 0.26554477
0000b0 1e a6 83 3e c2 8f 5e 3e b9 19 82 3e c4 06 58 3e
       0.25712675 0.21734527 0.2541025 0.21096331
0000c0 b1 78 6b 3e e9 73 83 3e eb 85 76 3e e2 72 80 3e
       0.22995259 0.2567437 0.24074523 0.2508765
0000d0 dc 41 67 3e fc 2e 5f 3e 7e 84 7b 3e 92 9b 72 3e
       0.22583717 0.21795267 0.2456226 0.23692158
0000e0 f0 30 83 3e 25 65 7d 3e 74 07 6e 3e c0 46 87 3e
       0.25623274 0.24745615 0.2324503 0.26421165
0000f0 1c e3 7f 3e 6a de 76 3e 66 ad 6d 3e 5d db 8c 3e
       0.24988979 0.24108282 0.23210678 0.2751111
000100 13 73 6d 3e b4 23 5c 3e 1e 3e 50 3e c0 4c 82 3e
       0.23188429 0.21497995 0.20336196 0.2544918
000110 7b 54 90 3e e2 be 54 3e 31 a9 8f 3e ce 5a 65 3e
       0.28189453 0.20775941 0.2805877 0.2239792
000120 8b 63 7c 3e fe 0b 80 3e 8a c8 54 3e 91 27 86 3e
       0.24647348 0.2500915 0.20779625 0.26202062
000130 b0 a8 80 3e 10 31 59 3e 6a b3 8d 3e 66 09 68 3e
       0.25128698 0.21210122 0.27675945 0.22659835
000140 c5 f8 83 3e 68 a4 82 3e 8a 4c 6a 3e 08 a6 71 3e
       0.25775734 0.25516057 0.2288076 0.23598492
000150 67 a4 7b 3e d3 e2 50 3e a1 7e 88 3e 9e 2f 8e 3e
       0.24574433 0.20399027 0.2665911 0.27770704
000160 11 b5 5f 3e b0 8e 8d 3e e1 0e 75 3e 22 14 7b 3e
       0.21846415 0.27647924 0.23931457 0.24519399
000170 43 b5 57 3e b9 67 79 3e 6e d4 79 3e 2f dd 7f 3e
       0.2106524 0.24355973 0.24397442 0.24986719
000180 90 d5 4d 3e b2 61 46 3e 76 04 76 3e ad a2 78 3e
       0.20100999 0.19373205 0.24025139 0.24280806
000190 4f 1b 89 3e 2b eb 6a 3e 03 1c 60 3e 07 0c 70 3e
       0.26778647 0.22941272 0.21885686 0.23442088
0001a0 a7 b0 62 3e 97 ee 88 3e 30 eb 8a 3e 8e 46 59 3e
       0.221377 0.2674453 0.2713256 0.2121832
0001b0 04 38 88 3e 30 c5 70 3e 0e eb 82 3e 7a 5f 6e 3e
       0.26605237 0.23512721 0.25569957 0.23278609
0001c0 95 75 78 3e 3d db 80 3e ab c1 8b 3e 68 89 8b 3e
       0.24263604 0.25167266 0.27296194 0.2725327
0001d0 38 75 67 3e 6a 91 73 3e 7b cc 84 3e ab e6 85 3e
       0.22603309 0.2378594 0.25937256 0.26152548
0001e0 da 97 81 3e 60 fb 70 3e 86 d8 82 3e ac f6 81 3e
       0.25311166 0.23533392 0.2555582 0.25383508
0001f0 7d e4 71 3e 98 bd 89 3e 3b a1 82 3e ad aa 7c 3e
       0.23622318 0.2690246 0.25513634 0.24674483

fc.2.weight f4 [255, 128]
000000 bc 74 80 be 89 cc 96 3e c1 79 a3 be 4f 2d a7 3e
       -0.2508906 0.29452923 -0.31928828 0.32651755
000010 9a 8d 51 3e e9 dd cf be 60 17 74 be 8a 4a d0 be
       0.20464173 -0.40598992 -0.23837042 -0.4068187
000020 51 49 65 be 8a 38 aa 3e 9d c3 a2 3d 48 d3 8c 3e
       -0.22391249 0.3324626 0.079474665 0.27504945
000030 44 c3 b0 be 19 ea ce be 60 b8 7d be 0f 3f 9d be
       -0.34523976 -0.40412977 -0.24777365 -0.30712172
000040 11 aa c9 be ed 9f 9d be 25 c3 e9 be 2e 17 9e 3e
       -0.39387563 -0.30786076 -0.45656696 0.3087706
000050 1a bb c2 be a0 25 d4 be 38 0c b1 3e cd f7 9b 3e
       -0.38033372 -0.41434956 0.34579635 0.30462494
000060 0a ff bc be a0 1e 73 3d fd a3 8f be d4 5a b1 3e
       -0.3691333 0.05935538 -0.280548 0.3463961
000070 6c 73 d9 3e 10 07 1f 3e 62 d6 23 be b9 08 00 3d
       0.42470872 0.15530038 -0.1599975 0.03125832
000080 34 6f 4e 3d af fd ba be 0d 63 93 be 20 dc c9 be
       0.05039902 -0.3652167 -0.28786507 -0.39425755
000090 68 d9 d4 3d 8a 26 bb be 0c 79 a5 3e 26 52 a2 3e
       0.103930295 -0.3655284 0.32318914 0.317033
0000a0 b9 d7 9f 3e 3c 94 c0 be 6c a0 67 3e 6a 4c ac be
       0.3121927 -0.37613094 0.2261979 -0.3365205
0000b0 f3 9c 85 3e 2c b2 b1 3e 7f ff b9 3d d3 81 98 3e
       0.26096305 0.34706247 0.09081935 0.29786548
0000c0 52 06 c0 be 30 6f c7 be 73 de 94 3e 0e 3f 7b 3e
       -0.37504822 -0.38952017 0.29075965 0.24535772
0000d0 75 e1 80 3e 76 5e b2 3e 22 b4 a0 3e 94 c3 66 3e
       0.2517201 0.34837693 0.3138743 0.22535545
0000e0 ae 34 e0 be cd 9d 82 3e bb ae c8 be 23 5c dc be
       -0.4379019 0.25511017 -0.3919581 -0.43039045
0000f0 78 31 82 be ce 55 ab be 82 04 07 3e f2 b6 a3 be
       -0.25428367 -0.334639 0.13185313 -0.31975514
000100 47 42 87 3e ab dd 8d 3e ca d7 87 3e 01 ca b6 be
       0.26417753 0.27708182 0.2653182 -0.35700992
000110 18 1a b0 be 7e ee 5a 3e 28 8f c6 3e c6 97 b9 3e
       -0.34394908 0.2138004 0.38781095 0.36248606
000120 e6 01 7d 3e 81 10 a2 be 4f d0 c0 be 41 f4 8c be
       0.24707755 -0.31653216 -0.37658927 -0.275301
000130 2d 69 88 3e f1 d1 ab 3e b4 ca d4 3d f7 b9 55 be
       0.26642743 0.3355861 0.10390225 -0.20871721
000140 56 7e 8d be 85 68 a4 3e 3d 63 ac 3d fb cf ae be
       -0.2763545 0.32110992 0.08417366 -0.34143052
000150 9a 26 53 3e 92 ac e0 bd 51 bc 65 be 16 0c d0 3e
       0.20620194 -0.10970415 -0.22435118 0.4063422
000160 43 2e 89 be 6c e7 84 3e 2e f2 bc bc 48 cc 40 3e
       -0.26793107 0.2595781 -0.023064699 0.18827927
000170 d1 06 67 be 67 1d 51 3e c6 97 d1 be 58 3b 96 3e
       -0.22561194 0.20421372 -0.40936106 0.2934215
000180 2b ba 95 3e fc 3a a6 3e db 0a cd 3e d8 35 d5 be
       0.29243597 0.32466877 0.40047345 -0.41642642
000190 b2 73 ef be 66 64 67 3e 84 53 b3 be 1a 18 c7 be
       -0.46767956 0.22596893 -0.35024655 -0.38885576
0001a0 63 f5 8b be 48 e5 aa 3e b8 99 47 be 15 ad 9d 3e
       -0.27335653 0.33378053 -0.19492233 0.30796114
0001b0 5a 1d c4 be cc 92 9d 3e 9c 05 d5 be 94 6d 89 be
       -0.38303643 0.3077606 -0.41605842 -0.26841414
0001c0 6b ab f5 3d b9 0e 0f bf 70 f0 9a 3e 77 68 89 be
       0.11995586 -0.5588184 0.30261564 -0.26837513
0001d0 ad 48 b2 be 17 4c 88 be 45 ee 94 be e2 77 6d 3e
       -0.34821072 -0.26620552 -0.29088035 0.23190263
0001e0 eb c9 8d 3e 09 dd a1 3e bf 72 e5 3c ab 79 86 3e
       0.27693114 0.3161395 0.028008817 0.262647
0001f0 35 c5 c5 be 5c 88 9a 3e f4 df cc 3e 0e 7f c4 be
       -0.3862702 0.3018216 0.40014613 -0.38378185
000200 ba d4 e7 be a0 7c a6 3e 2e 6d bf be 06 f4 d1 3e
       -0.45279485 0.32516956 -0.37387985 0.41006488
000210 bb 6c 49 be a0 97 0a 3e 46 96 58 be b4 9f ae be
       -0.19670384 0.13534403 -0.21151075 -0.3410622
000220 6d 60 b7 3e 6b ff ab 3e f9 dc a5 3e 67 62 ac 3e
       0.35815755 0.33593306 0.3239515 0.33668825
000230 a9 5c 8b 3e 0b 42 bb be 81 d8 cf be bd 2b 8c be
       0.27219132 -0.36573824 -0.40594867 -0.2737712
000240 b3 d6 a0 be a8 68 22 be a8 14 a8 3e 30 c5 b3 3d
       -0.31413803 -0.15860236 0.3282826 0.08777845
000250 c9 26 61 be 34 60 a6 3e 13 08 cc 3e 16 21 ae 3e
       -0.21987452 0.32495272 0.3984991 0.34009618
000260 fd 04 84 be 70 d9 94 be 81 49 51 be aa 6f 94 be
       -0.25785056 -0.29072142 -0.20438196 -0.28991443
000270 70 7d 7f be 25 b3 d3 3e b2 34 c6 be 3e 59 77 3e
       -0.24950194 0.41347614 -0.38712078 0.24155137
000280 c3 08 9b be 9c 63 b8 be c2 86 6e be bd 58 7e 3e
       -0.30280122 -0.36013496 -0.23293594 0.24838538
000290 7b ec da be 7d d9 d0 be 19 a5 5b 3e 99 e6 8c 3e
       -0.42758545 -0.4079093 0.21449699 0.27519682
0002a0 f5 ea 89 3e ef 00 76 be 06 c4 b1 3d 7c c9 a8 be
       0.2693707 -0.24023794 0.08679967 -0.3296622
0002b0 95 b8 5c be 66 fa aa 3e 7d a4 91 3e f6 b3 ee be
       -0.21554787 0.33394164 0.28445807 -0.46621674
0002c0 1b 34 b3 be 0f 4a 81 3e 5f 4e aa 3e 64 75 bc be
       -0.3500069 0.25251815 0.33262917 -0.36808312
0002d0 6a 51 a4 3e cc 55 83 3e 26 18 0f be ec f4 cb 3e
       0.32093364 0.25651395 -0.13974056 0.39835298
0002e0 87 c2 a3 3e 38 7f ca 3e 13 46 81 3c 79 73 9a be
       0.3198435 0.39550185 0.015780484 -0.30166224
0002f0 ad 63 92 be 66 36 96 be ed a9 9c 3e d0 17 7e be
       -0.28591672 -0.29338378 0.30598393 -0.24813771
000300 34 63 ca be 4a 79 c2 3d f6 80 4d 3e 8e cf ab be
       -0.3952881 0.0949579 0.20068726 -0.3355679
000310 8f 08 a6 be 3c d7 91 3e dc 68 aa be a9 50 9b 3e
       -0.32428405 0.28484523 -0.33283126 0.30334976
000320 d8 18 b2 3e bd ef a0 be 16 db 94 be 93 a1 a2 be
       0.3478458 -0.31432906 -0.290734 -0.31763896
000330 4d 8f 50 3e 22 ea ba be 74 5f 79 3e 65 2a 94 be
       0.20367165 -0.36506754 0.24352819 -0.28938594
000340 1c 45 85 be 0c 48 6a be b9 84 83 3e 0b 0b 9d be
       -0.2602929 -0.22879046 0.25687197 -0.30672488
000350 ca 15 9e 3e 07 19 ea be 2c e6 ef 3e b8 ed 94 be
       0.30876 -0.4572222 0.46855295 -0.29087615
000360 f7 c7 ba 3e 45 ae 5a be 27 8f 7e bd 2d f3 3d 3e
       0.36480686 -0.21355541 -0.06214824 0.18549795
000370 90 2c c9 3e bc 9e e5 be 63 5d cf be 81 24 68 3e
       0.3929181 -0.44847667 -0.40500936 0.22670175
000380 fa a9 ba be 51 85 d4 be e8 5d ce be 8f cd f4 3e
       -0.36457807 -0.41507962 -0.4030602 0.4781308
000390 79 8d 36 bd 27 e4 95 3e d3 40 e6 3e 1a 9a 63 3e
       -0.044568513 0.2927563 0.44971332 0.22226754
0003a0 a5 a3 51 be 21 de d7 3e 5b 30 ba be a9 59 bc be
       -0.20472582 0.42161658 -0.36365017 -0.36787155
0003b0 d2 f6 d1 3e fb c9 a6 3e 89 23 38 3e e0 f8 bb be
       0.4100862 0.32575974 0.17982306 -0.36713314
0003c0 44 c0 a3 be 64 aa c5 3e 73 38 c2 be e7 c9 d0 be
       -0.31982625 0.3860656 -0.37933692 -0.4077904
0003d0 ee c5 91 be 49 de 93 be a3 50 7f be 6b c8 91 3e
       -0.2847132 -0.28880528 -0.24933104 0.2847322
0003e0 fe 5b 91 3e 1f 12 85 3e c3 7f 99 be a3 4d 7a 3e
       0.28390497 0.25990388 -0.29980287 0.24443679
0003f0 89 13 be be 4c 21 c6 be 67 1e b4 3e b7 bd 65 be
       -0.3712428 -0.38697278 0.35179445 -0.22435652

fc.2.bias f4 [255]
000000 52 96 64 be 16 6b 60 be 6a c3 6c 3e f7 13 82 bb
       -0.22322968 -0.2191585 0.2312142 -0.003969665
000010 93 2f f0 bd 05 be 4e be ed fc 88 3e 13 62 89 bc
       -0.11727824 -0.20189674 0.26755467 -0.016770398
000020 05 5a 81 bd d7 75 50 be 96 19 e3 bc 59 93 2a 3e
       -0.06315998 -0.20357452 -0.027722161 0.16657771
000030 67 95 a4 3d 0f 4f 88 bd 9f e8 1c be 7a 9b 2d 3e
       0.08036309 -0.06655704 -0.15323113 0.16953841
000040 10 38 41 be bf 05 ac 3d 17 9a 36 be dc e7 30 3e
       -0.18869042 0.083995335 -0.17832218 0.17275947
000050 1a 12 8e bd 9c 95 5c 3e e4 92 b3 3d b1 7e 02 3d
       -0.06937046 0.21541446 0.087682515 0.031859104
000060 47 3f 6b 3e 5e ec c6 bd 8b c2 39 3e 53 dd 13 3e
       0.22973357 -0.09713052 0.18140619 0.14439897
000070 4c 6e 5d be 27 c9 2a be 96 f1 4a 3c 33 17 24 be
       -0.21624106 -0.16678296 0.0123867 -0.16024475
000080 2b f1 da bd 36 1c 5e be c5 34 ee bc a1 14 71 3e
       -0.106905304 -0.21690449 -0.029077897 0.23543026
000090 75 da 4e be 8a e4 82 bd df ac 11 be 72 1d 65 be
       -0.20200522 -0.063912466 -0.14226101 -0.22374514
0000a0 57 ca 87 be c3 d1 53 bc 0a e6 7f be ed 14 90 3e
       -0.2652156 -0.012928429 -0.24990097 0.28140965
0000b0 71 e7 e5 bd 52 e1 74 bd 62 77 8d bd 3f c5 a5 3e
       -0.112257846 -0.059785195 -0.06907536 0.3237705
0000c0 1f d3 2b be e9 91 16 be 1c c1 e2 bc 5a 65 a6 3c
       -0.16779755 -0.14704098 -0.027679972 0.020312
0000d0 8b 05 8a ba d7 42 e6 bd fc e5 97 3e 16 e9 61 3e
       -0.0010530216 -0.112432174 0.29667652 0.22061571
0000e0 a9 c2 0a bd f2 4b ef 3d 15 37 22 be 42 57 4c be
       -0.03387705 0.11684407 -0.15841325 -0.19955161
0000f0 99 f6 dc bd ae 80 93 3e 48 6c 67 bc 4e 49 24 bc
       -0.10789222 0.28809112 -0.014124937 -0.010027243
000100 66 17 48 3e b2 28 22 be 4f 72 6b 3e 32 eb 1a bd
       0.19540176 -0.15835837 0.22992824 -0.037821956
000110 7a 48 6a be bc 9b 75 be 43 3c 92 3e bb ea 3d be
       -0.2287921 -0.23985189 0.285616 -0.18546574
000120 f4 de 9b 3e a6 bc 90 bb 12 92 80 be df f6 91 bd
       0.30443537 -0.00441702 -0.25111443 -0.07127165
000130 c1 c3 31 be 72 13 33 be 1e 57 34 3e 8e 9a 0c 3e
       -0.1735983 -0.17487887 0.17611358 0.13730833
000140 81 99 9d 3e ee 88 df bc 60 5b 4f be d5 3d de bd
       0.30781177 -0.027286973 -0.202497 -0.10851637
000150 3b e2 27 3e 8b 74 83 bd dd dc 48 bd 62 04 36 be
       0.16394894 -0.06418713 -0.049038757 -0.1777511
000160 84 19 4a bd 9d b7 11 3e 1c 9a a4 bd b0 c9 53 3e
       -0.04934074 0.14230199 -0.080372065 0.20682406
000170 16 b8 5b 3e 61 80 39 be 2e ac 68 3e 04 ee 02 bd
       0.21456942 -0.18115379 0.22721931 -0.03196527
000180 b9 7f 18 be 8a d6 12 bd 20 28 70 be 75 36 27 3e
       -0.14892472 -0.03584913 -0.23452806 0.16329367
000190 99 52 68 bc e1 b0 8c 3e ad 90 55 be 15 e2 9a bc
       -0.014179849 0.27478698 -0.2085597 -0.018906632
0001a0 46 15 cf 3c a1 91 32 3e fb 90 8b 3e 36 49 50 3c
       0.025278699 0.17438366 0.2725905 0.012712767
0001b0 a9 d4 1b ba c7 cc aa 3d 76 99 a2 bd 37 81 40 bb
       -0.00059444696 0.083398394 -0.079394266 -0.0029373893
0001c0 4f 11 16 3e 36 48 1e be 18 9a 22 3e 97 51 06 be
       0.1465504 -0.15457234 0.15879095 -0.13117062
0001d0 31 91 05 be ea 2c 00 3e 4d 07 d0 3d ab 90 78 bd
       -0.13043667 0.12517133 0.101576425 -0.06068484
0001e0 06 27 33 3e 59 dc 01 be 95 c4 39 bd 52 c8 37 be
       0.17495355 -0.12681712 -0.04535349 -0.1794751
0001f0 33 48 65 be 04 33 d8 bd ac 80 19 be 66 74 10 be
       -0.22390823 -0.105566055 -0.1499049 -0.14106902
000200 1a 2b 42 3d c9 1c 44 be a3 46 49 be dc e6 94 3e
       0.047404386 -0.19151606 -0.19655852 0.29082382
000210 4a ce 5d 3e fc 97 8f 3e 29 5a 3f 3e 02 5e 14 be
       0.21660724 0.28045642 0.18686737 -0.14488986
000220 13 66 4e 3e 74 7e 30 be ac 48 ad 3c 06 92 3d be
       0.20156126 -0.17235738 0.021152817 -0.18512735
000230 cf 67 66 be e3 bc 41 3e 48 a5 be bd 94 c6 ae bd
       -0.22500537 0.18919711 -0.09308869 -0.085339695
000240 9c ed f9 bd 8c e2 5f be d8 c2 2c be fe ca 05 3e
       -0.122035235 -0.21863765 -0.16871202 0.13065717
000250 4e 6e e7 bd 79 36 01 bd 41 aa 53 be 4c 9c 3c be
       -0.11300336 -0.03154609 -0.20670415 -0.18418998
000260 b5 ca f9 bb f0 30 f9 3d a6 6c 18 be 87 56 84 3e
       -0.0076230415 0.12167537 -0.14885196 0.25847265
000270 73 02 fc 3d 96 9c a0 bd 71 23 9f 3e 3f 8a a4 3d
       0.12305155 -0.078423664 0.31081727 0.08034181
000280 51 13 30 be de f4 63 be 4b 56 67 be 6c a1 95 be
       -0.17194869 -0.22261378 -0.22591512 -0.29224718
000290 7d 7b 82 3e ce 7a c1 bd 28 53 80 3d 4e 3a f7 3d
       0.2548484 -0.09447251 0.06265861 0.120716676
0002a0 35 78 8a bd 15 1e 95 3d 38 45 22 bd 96 04 84 be
       -0.06761209 0.07281128 -0.039616793 -0.2578475
0002b0 51 75 55 be ab bf 2e be db c8 98 3e e8 b9 29 be
       -0.20845534 -0.17065303 0.2984074 -0.16574824
0002c0 e3 d2 b4 bc b6 13 2b 3e e8 5a 64 3e f1 4d ed bd
       -0.022073215 0.16706738 0.22300303 -0.11587132
0002d0 67 90 b9 3d ae c1 b7 bd af 0b 8f 3e 09 c6 96 3e
       0.09060746 -0.08972488 0.279386 0.29447964
0002e0 68 dd 20 be 28 50 0a 3e b9 a8 50 3e ea d7 29 3b
       -0.1570946 0.1350714 0.20376863 0.0025916048
0002f0 39 e3 01 be d1 39 67 3e 6a c4 1d 3e e8 56 6b be
       -0.12684335 0.22580649 0.15406957 -0.22982371
000300 cd e4 17 be 65 d3 49 be 90 7f 92 3e 4e fd af bd
       -0.14833374 -0.19709547 0.28612947 -0.08593236
000310 10 93 68 3d 11 44 33 be 41 2f 6b 3d d7 27 5b be
       0.056780875 -0.17506434 0.05741811 -0.21401916
000320 b2 50 43 3e fb 5b b6 bd 0d 60 80 be 1f d5 44 bd
       0.19073752 -0.08904263 -0.2507328 -0.04805481
000330 84 8f d2 3c 25 e1 00 bd 3d bf 23 be 6b 1e 53 be
       0.0257032 -0.031464715 -0.1599092 -0.20617072
000340 62 16 72 bd 4b 74 4b be fd 88 5a 3e d7 f5 f7 bd
       -0.059103377 -0.19868581 0.2134132 -0.12107437
000350 23 aa 83 3d 80 e6 54 bd 15 de 2a be 35 63 2b 3e
       0.064289354 -0.051977634 -0.1668628 0.16737063
000360 d9 4b 89 be dd 90 4e be 09 a5 15 be f4 93 1e be
       -0.2681568 -0.20172448 -0.14613737 -0.15486127
000370 81 dc b0 bd 02 97 66 3b 80 40 ee bd d5 75 5b be
       -0.08635808 0.0035185223 -0.11633396 -0.21431668
000380 dc 18 96 be ea a5 dc bd 7a 74 3c be 6a 08 18 3e
       -0.2931584 -0.10773833 -0.18403807 0.1484696
000390 56 1e c3 3d e7 e4 34 be e2 bf 7a bd aa 00 1c be
       0.095272705 -0.17665444 -0.06121815 -0.15234628
0003a0 2d be 09 3d db fa 06 be 0e 22 79 be 4c ba 2e 3e
       0.03362863 -0.13181631 -0.24329397 0.17063254
0003b0 81 e0 b8 3e 34 72 5b be 7e d3 75 bd 7b 04 1c 3e
       0.36108783 -0.21430284 -0.060016148 0.15236084
0003c0 c4 84 84 bd 18 dd 09 3e 67 92 02 be 55 35 03 be
       -0.064706355 0.13463247 -0.1275116 -0.12813313
0003d0 39 69 1a be 55 3b 3d 3e 63 27 9c 3e 49 4c d4 3d
       -0.15079202 0.18479665 0.304988 0.10366113
0003e0 2d ba a5 3e 69 09 29 be bf a8 53 bd 90 23 3c be
       0.32368603 -0.16507496 -0.0516746 -0.18372941
0003f0 3a bf 72 be 7e 31 cc 3d fd 2e 5e 3b
       -0.2370576 0.099703774 0.003390252
